…
INFO:cell_load.data_modules.samplers:Creating meta-batches with cell_sentence_len=128...
INFO:cell_load.data_modules.samplers:Of all batches, 2831 were full and 525 were partial.
INFO:cell_load.data_modules.samplers:Sampler created with 210 batches in 0.36 seconds.
Processed competition_train: 221273 train, 0 val, 0 test
Processed k562_gwps: 111605 train, 0 val, 0 test
Processed rpe1: 22317 train, 0 val, 0 test
Processed jurkat: 21412 train, 0 val, 0 test
Processed k562: 18465 train, 0 val, 0 test
Processed hepg2: 0 train, 0 val, 9386 test
num_workers: 1
batch size: None
StateTransitionPerturbationModel(
  (loss_fn): SamplesLoss()
  (pert_encoder): Sequential(
    (0): Linear(in_features=5120, out_features=672, bias=True)
    (1): GELU(approximate='none')
    (2): Dropout(p=0.1, inplace=False)
    (3): Linear(in_features=672, out_features=672, bias=True)
    (4): GELU(approximate='none')
    (5): Dropout(p=0.1, inplace=False)
    (6): Linear(in_features=672, out_features=672, bias=True)
    (7): GELU(approximate='none')
    (8): Dropout(p=0.1, inplace=False)
    (9): Linear(in_features=672, out_features=672, bias=True)
  )
  (basal_encoder): Linear(in_features=18080, out_features=672, bias=True)
  (transformer_backbone): LlamaBidirectionalModel(
    (embed_tokens): Embedding(32000, 672, padding_idx=0)
    (layers): ModuleList(
      (0-3): 4 x LlamaDecoderLayer(
        (self_attn): LlamaAttention(
          (q_proj): Linear(in_features=672, out_features=672, bias=False)
          (k_proj): Linear(in_features=672, out_features=672, bias=False)
          (v_proj): Linear(in_features=672, out_features=672, bias=False)
          (o_proj): Linear(in_features=672, out_features=672, bias=False)
        )
        (mlp): LlamaMLP(
          (gate_proj): Linear(in_features=672, out_features=2688, bias=False)
          (up_proj): Linear(in_features=672, out_features=2688, bias=False)
          (down_proj): Linear(in_features=2688, out_features=672, bias=False)
          (act_fn): SiLU()
        )
        (input_layernorm): LlamaRMSNorm((672,), eps=1e-06)
        (post_attention_layernorm): LlamaRMSNorm((672,), eps=1e-06)
      )
    )
    (norm): LlamaRMSNorm((672,), eps=1e-06)
    (rotary_emb): NoRoPE()
  )
  (project_out): Sequential(
    (0): Linear(in_features=672, out_features=672, bias=True)
    (1): GELU(approximate='none')
    (2): Dropout(p=0.1, inplace=False)
    (3): Linear(in_features=672, out_features=672, bias=True)
    (4): GELU(approximate='none')
    (5): Dropout(p=0.1, inplace=False)
    (6): Linear(in_features=672, out_features=672, bias=True)
    (7): GELU(approximate='none')
    (8): Dropout(p=0.1, inplace=False)
    (9): Linear(in_features=672, out_features=18080, bias=True)
  )
  (final_down_then_up): Sequential(
    (0): Linear(in_features=18080, out_features=2260, bias=True)
    (1): GELU(approximate='none')
    (2): Linear(in_features=2260, out_features=18080, bias=True)
  )
  (relu): ReLU()
)
Model created. Estimated params size: 0.61 GB
Building trainer with kwargs: {'accelerator': 'cpu', 'devices': 1, 'max_steps': 62, 'check_val_every_n_epoch': None, 'val_check_interval': 100, 'logger': [<state.tx.utils.RobustCSVLogger object at 0x7ec08852f250>, <lightning.pytorch.loggers.wandb.WandbLogger object at 0x7ec082b58f5
…
